…
  stage: ""
}
I0112 08:24:02.522558 29431 solver.cpp:108] Creating training net from net file: train_val.prototxt
I0112 08:24:02.539959 29431 net.cpp:346] The NetState phase (0) differed from the phase (1) specified by a rule in layer data
I0112 08:24:02.540674 29431 net.cpp:59] Initializing net from parameters: 
name: "AlexNet"
state {
  phase: TRAIN
  level: 0
  stage: ""
}
layer {
  name: "data"
  type: "HDF5Data"
  top: "data"
  top: "label"
  include {
    phase: TRAIN
  }
  hdf5_data_param {
    source: "train_loc.txt"
    batch_size: 16
  }
}
layer {
  name: "conv1"
  type: "Convolution"
  bottom: "data"
  top: "conv1"
  param {
    lr_mult: 1
    decay_mult: 1
  }
  param {
    lr_mult: 2
    decay_mult: 0
  }
  convolution_param {
    num_output: 96
    kernel_size: 11
    stride: 4
    weight_filler {
      type: "gaussian"
      std: 0.01
    }
    bias_filler {
      type: "constant"
      value: 0
    }
  }
}
layer {
  name: "relu1"
  type: "ReLU"
  bottom: "conv1"
  top: "conv1"
}
layer {
  name: "norm1"
  type: "LRN"
  bottom: "conv1"
  top: "norm1"
  lrn_param {
    local_size: 5
    alpha: 0.0001
    beta: 0.75
  }
}
layer {
  name: "pool1"
  type: "Pooling"
  bottom: "norm1"
  top: "pool1"
  pooling_param {
    pool: MAX
    kernel_size: 3
    stride: 2
  }
}
layer {
  name: "conv2"
  type: "Convolution"
  bottom: "pool1"
  top: "conv2"
  param {
    lr_mult: 1
    decay_mult: 1
  }
  param {
    lr_mult: 2
    decay_mult: 0
  }
  convolution_param {
    num_output: 256
    pad: 2
    kernel_size: 5
    group: 2
    weight_filler {
      type: "gaussian"
      std: 0.01
    }
    bias_filler {
      type: "constant"
      value: 0.1
    }
  }
}
layer {
  name: "relu2"
  type: "ReLU"
  bottom: "conv2"
  top: "conv2"
}
layer {
  name: "norm2"
  type: "LRN"
  bottom: "conv2"
  top: "norm2"
  lrn_param {
    local_size: 5
    alpha: 0.0001
    beta: 0.75
  }
}
layer {
  name: "pool2"
  type: "Pooling"
  bottom: "norm2"
  top: "pool2"
  pooling_param {
    pool: AVE
    kernel_size: 3
    stride: 2
  }
}
layer {
  name: "conv3"
  type: "Convolution"
  bottom: "pool2"
  top: "conv3"
  param {
    lr_mult: 1
    decay_mult: 1
  }
  param {
    lr_mult: 2
    decay_mult: 0
  }
  convolution_param {
    num_output: 384
    pad: 1
    kernel_size: 3
    weight_filler {
      type: "gaussian"
      std: 0.01
    }
    bias_filler {
      type: "constant"
      value: 0
    }
  }
}
layer {
  name: "relu3"
  type: "ReLU"
  bottom: "conv3"
  top: "conv3"
}
layer {
  name: "conv4"
  type: "Convolution"
  bottom: "conv3"
  top: "conv4"
  param {
    lr_mult: 1
    decay_mult: 1
  }
  param {
    lr_mult: 2
    decay_mult: 0
  }
  convolution_param {
    num_output: 384
    pad: 1
    kernel_size: 3
    group: 2
    weight_filler {
      type: "gaussian"
      std: 0.01
    }
    bias_filler {
      type: "constant"
      value: 0.1
    }
  }
}
layer {
  name: "relu4"
  type: "ReLU"
  bottom: "conv4"
  top: "conv4"
}
layer {
  name: "conv5"
  type: "Convolution"
  bottom: "conv4"
  top: "conv5"
  param {
    lr_mult: 1
    decay_mult: 1
  }
  param {
    lr_mult: 2
    decay_mult: 0
  }
  convolution_param {
    num_output: 256
    pad: 1
    kernel_size: 3
    group: 2
    weight_filler {
      type: "gaussian"
      std: 0.01
    }
    bias_filler {
      type: "constant"
      value: 0.1
    }
  }
}
layer {
  name: "relu5"
  type: "ReLU"
  bottom: "conv5"
  top: "conv5"
}
layer {
  name: "pool5"
  type: "Pooling"
  bottom: "conv5"
  top: "pool5"
  pooling_param {
    pool: AVE
    kernel_size: 3
    stride: 2
  }
}
layer {
  name: "fc6"
  type: "InnerProduct"
  bottom: "pool5"
  top: "fc6"
  param {
    lr_mult: 1
    decay_mult: 1
  }
  param {
    lr_mult: 2
    decay_mult: 0
  }
  inner_product_param {
    num_output: 4096
    weight_filler {
      type: "gaussian"
      std: 0.005
    }
    bias_filler {
      type: "constant"
      value: 0.1
    }
  }
}
layer {
  name: "relu6"
  type: "ReLU"
  bottom: "fc6"
  top: "fc6"
}
layer {
  name: "drop6"
  type: "Dropout"
  bottom: "fc6"
  top: "fc6"
  dropout_param {
    dropout_ratio: 0.5
  }
}
layer {
  name: "fc7"
  type: "InnerProduct"
  bottom: "fc6"
  top: "fc7"
  param {
    lr_mult: 1
    decay_mult: 1
  }
  param {
    lr_mult: 2
    decay_mult: 0
  }
  inner_product_param {
    num_output: 4096
    weight_filler {
      type: "gaussian"
      std: 0.005
    }
    bias_filler {
      type: "constant"
      value: 0.1
    }
  }
}
layer {
  name: "relu7"
  type: "ReLU"
  bottom: "fc7"
  top: "fc7"
}
layer {
  name: "drop7"
  type: "Dropout"
  bottom: "fc7"
  top: "fc7"
  dropout_param {
    dropout_ratio: 0.5
  }
}
layer {
  name: "fc8"
  type: "InnerProduct"
  bottom: "fc7"
  top: "fc8"
  param {
    lr_mult: 1
    decay_mult: 1
  }
  param {
    lr_mult: 2
    decay_mult: 0
  }
  inner_product_param {
    num_output: 600
    weight_filler {
      type: "gaussian"
      std: 0.01
    }
    bias_filler {
      type: "constant"
      value: 0
    }
  }
}
layer {
  name: "loss"
  type: "EuclideanLoss"
  bottom: "fc8"
  bottom: "label"
  top: "loss"
}
I0112 08:24:02.540956 29431 layer_factory.cpp:65] Creating layer data
I0112 08:24:02.541093 29431 net.cpp:107] Creating Layer data
I0112 08:24:02.541128 29431 net.cpp:437] data -> data
I0112 08:24:02.555269 29431 net.cpp:437] data -> label
I0112 08:24:02.555738 29431 hdf5_data_layer.cpp:79] Loading list of HDF5 filenames from: train_loc.txt
I0112 08:24:02.555881 29431 hdf5_data_layer.cpp:93] Number of HDF5 files: 38
I0112 08:24:02.647269 29431 hdf5.cpp:36] Datatype class: H5T_FLOAT
I0112 08:24:11.980206 29431 net.cpp:158] Setting up data
I0112 08:24:11.980278 29431 net.cpp:166] Top shape: 16 3 256 256 (3145728)
I0112 08:24:11.980289 29431 net.cpp:166] Top shape: 16 600 1 1 (9600)
I0112 08:24:11.980325 29431 layer_factory.cpp:65] Creating layer conv1
I0112 08:24:11.991799 29431 net.cpp:107] Creating Layer conv1
I0112 08:24:11.991832 29431 net.cpp:468] conv1 <- data
I0112 08:24:11.991878 29431 net.cpp:437] conv1 -> conv1
I0112 08:24:12.945201 29431 net.cpp:158] Setting up conv1
I0112 08:24:12.945255 29431 net.cpp:166] Top shape: 16 96 62 62 (5904384)
I0112 08:24:12.945322 29431 layer_factory.cpp:65] Creating layer relu1
I0112 08:24:12.945340 29431 net.cpp:107] Creating Layer relu1
I0112 08:24:12.945350 29431 net.cpp:468] relu1 <- conv1
I0112 08:24:12.945363 29431 net.cpp:424] relu1 -> conv1 (in-place)
I0112 08:24:12.945380 29431 net.cpp:158] Setting up relu1
I0112 08:24:12.945390 29431 net.cpp:166] Top shape: 16 96 62 62 (5904384)
I0112 08:24:12.945401 29431 layer_factory.cpp:65] Creating layer norm1
I0112 08:24:12.945417 29431 net.cpp:107] Creating Layer norm1
I0112 08:24:12.945425 29431 net.cpp:468] norm1 <- conv1
I0112 08:24:12.945441 29431 net.cpp:437] norm1 -> norm1
I0112 08:24:12.945467 29431 net.cpp:158] Setting up norm1
I0112 08:24:12.945478 29431 net.cpp:166] Top shape: 16 96 62 62 (5904384)
I0112 08:24:12.945490 29431 layer_factory.cpp:65] Creating layer pool1
I0112 08:24:12.945508 29431 net.cpp:107] Creating Layer pool1
I0112 08:24:12.945515 29431 net.cpp:468] pool1 <- norm1
I0112 08:24:12.945529 29431 net.cpp:437] pool1 -> pool1
I0112 08:24:13.096132 29431 net.cpp:158] Setting up pool1
I0112 08:24:13.096186 29431 net.cpp:166] Top shape: 16 96 31 31 (1476096)
I0112 08:24:13.096217 29431 layer_factory.cpp:65] Creating layer conv2
I0112 08:24:13.096235 29431 net.cpp:107] Creating Layer conv2
I0112 08:24:13.096246 29431 net.cpp:468] conv2 <- pool1
I0112 08:24:13.096263 29431 net.cpp:437] conv2 -> conv2
I0112 08:24:14.414857 29431 net.cpp:158] Setting up conv2
I0112 08:24:14.414911 29431 net.cpp:166] Top shape: 16 256 31 31 (3936256)
I0112 08:24:14.414953 29431 layer_factory.cpp:65] Creating layer relu2
I0112 08:24:14.414979 29431 net.cpp:107] Creating Layer relu2
I0112 08:24:14.415001 29431 net.cpp:468] relu2 <- conv2
I0112 08:24:14.415015 29431 net.cpp:424] relu2 -> conv2 (in-place)
I0112 08:24:14.415031 29431 net.cpp:158] Setting up relu2
I0112 08:24:14.415041 29431 net.cpp:166] Top shape: 16 256 31 31 (3936256)
I0112 08:24:14.415053 29431 layer_factory.cpp:65] Creating layer norm2
I0112 08:24:14.415066 29431 net.cpp:107] Creating Layer norm2
I0112 08:24:14.415072 29431 net.cpp:468] norm2 <- conv2
I0112 08:24:14.415086 29431 net.cpp:437] norm2 -> norm2
I0112 08:24:14.415110 29431 net.cpp:158] Setting up norm2
I0112 08:24:14.415125 29431 net.cpp:166] Top shape: 16 256 31 31 (3936256)
I0112 08:24:14.415138 29431 layer_factory.cpp:65] Creating layer pool2
I0112 08:24:14.415160 29431 net.cpp:107] Creating Layer pool2
I0112 08:24:14.415168 29431 net.cpp:468] pool2 <- norm2
I0112 08:24:14.415182 29431 net.cpp:437] pool2 -> pool2
I0112 08:24:14.571691 29431 net.cpp:158] Setting up pool2
I0112 08:24:14.571743 29431 net.cpp:166] Top shape: 16 256 15 15 (921600)
I0112 08:24:14.571772 29431 layer_factory.cpp:65] Creating layer conv3
I0112 08:24:14.571790 29431 net.cpp:107] Creating Layer conv3
I0112 08:24:14.571801 29431 net.cpp:468] conv3 <- pool2
I0112 08:24:14.571818 29431 net.cpp:437] conv3 -> conv3
I0112 08:24:16.115743 29431 net.cpp:158] Setting up conv3
I0112 08:24:16.115795 29431 net.cpp:166] Top shape: 16 384 15 15 (1382400)
I0112 08:24:16.115841 29431 layer_factory.cpp:65] Creating layer relu3
I0112 08:24:16.115857 29431 net.cpp:107] Creating Layer relu3
I0112 08:24:16.115867 29431 net.cpp:468] relu3 <- conv3
I0112 08:24:16.115881 29431 net.cpp:424] relu3 -> conv3 (in-place)
I0112 08:24:16.115896 29431 net.cpp:158] Setting up relu3
I0112 08:24:16.115906 29431 net.cpp:166] Top shape: 16 384 15 15 (1382400)
I0112 08:24:16.115926 29431 layer_factory.cpp:65] Creating layer conv4
I0112 08:24:16.115941 29431 net.cpp:107] Creating Layer conv4
I0112 08:24:16.115948 29431 net.cpp:468] conv4 <- conv3
I0112 08:24:16.115964 29431 net.cpp:437] conv4 -> conv4
I0112 08:24:17.936379 29431 net.cpp:158] Setting up conv4
I0112 08:24:17.936450 29431 net.cpp:166] Top shape: 16 384 15 15 (1382400)
I0112 08:24:17.936489 29431 layer_factory.cpp:65] Creating layer relu4
I0112 08:24:17.936506 29431 net.cpp:107] Creating Layer relu4
I0112 08:24:17.936516 29431 net.cpp:468] relu4 <- conv4
I0112 08:24:17.936529 29431 net.cpp:424] relu4 -> conv4 (in-place)
I0112 08:24:17.936545 29431 net.cpp:158] Setting up relu4
I0112 08:24:17.936555 29431 net.cpp:166] Top shape: 16 384 15 15 (1382400)
I0112 08:24:17.936571 29431 layer_factory.cpp:65] Creating layer conv5
I0112 08:24:17.936586 29431 net.cpp:107] Creating Layer conv5
I0112 08:24:17.936594 29431 net.cpp:468] conv5 <- conv4
I0112 08:24:17.936606 29431 net.cpp:437] conv5 -> conv5
I0112 08:24:19.546526 29431 net.cpp:158] Setting up conv5
I0112 08:24:19.546578 29431 net.cpp:166] Top shape: 16 256 15 15 (921600)
I0112 08:24:19.546622 29431 layer_factory.cpp:65] Creating layer relu5
I0112 08:24:19.546638 29431 net.cpp:107] Creating Layer relu5
I0112 08:24:19.546649 29431 net.cpp:468] relu5 <- conv5
I0112 08:24:19.546663 29431 net.cpp:424] relu5 -> conv5 (in-place)
I0112 08:24:19.546677 29431 net.cpp:158] Setting up relu5
I0112 08:24:19.546687 29431 net.cpp:166] Top shape: 16 256 15 15 (921600)
I0112 08:24:19.546701 29431 layer_factory.cpp:65] Creating layer pool5
I0112 08:24:19.546715 29431 net.cpp:107] Creating Layer pool5
I0112 08:24:19.546723 29431 net.cpp:468] pool5 <- conv5
I0112 08:24:19.546736 29431 net.cpp:437] pool5 -> pool5
I0112 08:24:19.701139 29431 net.cpp:158] Setting up pool5
I0112 08:24:19.701198 29431 net.cpp:166] Top shape: 16 256 7 7 (200704)
I0112 08:24:19.701236 29431 layer_factory.cpp:65] Creating layer fc6
I0112 08:24:19.701256 29431 net.cpp:107] Creating Layer fc6
I0112 08:24:19.701267 29431 net.cpp:468] fc6 <- pool5
I0112 08:24:19.701284 29431 net.cpp:437] fc6 -> fc6
I0112 08:24:21.110096 29431 net.cpp:158] Setting up fc6
I0112 08:24:21.110201 29431 net.cpp:166] Top shape: 16 4096 (65536)
I0112 08:24:21.110298 29431 layer_factory.cpp:65] Creating layer relu6
I0112 08:24:21.110754 29431 net.cpp:107] Creating Layer relu6
I0112 08:24:21.110769 29431 net.cpp:468] relu6 <- fc6
I0112 08:24:21.110795 29431 net.cpp:424] relu6 -> fc6 (in-place)
I0112 08:24:21.110812 29431 net.cpp:158] Setting up relu6
I0112 08:24:21.110827 29431 net.cpp:166] Top shape: 16 4096 (65536)
I0112 08:24:21.110841 29431 layer_factory.cpp:65] Creating layer drop6
I0112 08:24:21.110869 29431 net.cpp:107] Creating Layer drop6
I0112 08:24:21.110878 29431 net.cpp:468] drop6 <- fc6
I0112 08:24:21.110890 29431 net.cpp:424] drop6 -> fc6 (in-place)
I0112 08:24:21.110918 29431 net.cpp:158] Setting up drop6
I0112 08:24:21.110932 29431 net.cpp:166] Top shape: 16 4096 (65536)
I0112 08:24:21.110949 29431 layer_factory.cpp:65] Creating layer fc7
I0112 08:24:21.110965 29431 net.cpp:107] Creating Layer fc7
I0112 08:24:21.110973 29431 net.cpp:468] fc7 <- fc6
I0112 08:24:21.110986 29431 net.cpp:437] fc7 -> fc7
I0112 08:24:21.570703 29431 net.cpp:158] Setting up fc7
I0112 08:24:21.570787 29431 net.cpp:166] Top shape: 16 4096 (65536)
I0112 08:24:21.570827 29431 layer_factory.cpp:65] Creating layer relu7
I0112 08:24:21.570852 29431 net.cpp:107] Creating Layer relu7
I0112 08:24:21.570866 29431 net.cpp:468] relu7 <- fc7
I0112 08:24:21.570884 29431 net.cpp:424] relu7 -> fc7 (in-place)
I0112 08:24:21.570905 29431 net.cpp:158] Setting up relu7
I0112 08:24:21.570919 29431 net.cpp:166] Top shape: 16 4096 (65536)
I0112 08:24:21.570933 29431 layer_factory.cpp:65] Creating layer drop7
I0112 08:24:21.570950 29431 net.cpp:107] Creating Layer drop7
I0112 08:24:21.570960 29431 net.cpp:468] drop7 <- fc7
I0112 08:24:21.570972 29431 net.cpp:424] drop7 -> fc7 (in-place)
I0112 08:24:21.570992 29431 net.cpp:158] Setting up drop7
I0112 08:24:21.571005 29431 net.cpp:166] Top shape: 16 4096 (65536)
I0112 08:24:21.571025 29431 layer_factory.cpp:65] Creating layer fc8
I0112 08:24:21.571043 29431 net.cpp:107] Creating Layer fc8
I0112 08:24:21.571053 29431 net.cpp:468] fc8 <- fc7
I0112 08:24:21.571068 29431 net.cpp:437] fc8 -> fc8
I0112 08:24:21.638566 29431 net.cpp:158] Setting up fc8
I0112 08:24:21.638658 29431 net.cpp:166] Top shape: 16 600 (9600)
I0112 08:24:21.638697 29431 layer_factory.cpp:65] Creating layer loss
I0112 08:24:21.638716 29431 net.cpp:107] Creating Layer loss
I0112 08:24:21.638727 29431 net.cpp:468] loss <- fc8
I0112 08:24:21.638744 29431 net.cpp:468] loss <- label
I0112 08:24:21.638767 29431 net.cpp:437] loss -> loss
I0112 08:24:21.639035 29431 net.cpp:158] Setting up loss
I0112 08:24:21.639055 29431 net.cpp:166] Top shape: (1)
…
