…
I0110 18:55:10.680438 20857 net.cpp:322] The NetState phase (0) differed from the phase (1) specified by a rule in layer accuracy
I0110 18:55:10.680573 20857 net.cpp:58] Initializing net from parameters: 
name: "AlexNet"
state {
  phase: TRAIN
  level: 0
  stage: ""
}
layer {
  name: "data"
  type: "HDF5Data"
  top: "data"
  include {
    phase: TRAIN
  }
  hdf5_data_param {
    source: "train_loc.txt"
    batch_size: 16
  }
}
layer {
  name: "data"
  type: "HDF5Data"
  top: "label"
  include {
    phase: TRAIN
  }
  hdf5_data_param {
    source: "label_list/train_label-1.txt"
    batch_size: 16
  }
}
layer {
  name: "conv1"
  type: "Convolution"
  bottom: "data"
  top: "conv1"
  param {
    lr_mult: 1
    decay_mult: 1
  }
  param {
    lr_mult: 2
    decay_mult: 0
  }
  convolution_param {
    num_output: 96
    kernel_size: 11
    stride: 4
    weight_filler {
      type: "gaussian"
      std: 0.01
    }
    bias_filler {
      type: "constant"
      value: 0
    }
  }
}
layer {
  name: "relu1"
  type: "ReLU"
  bottom: "conv1"
  top: "conv1"
}
layer {
  name: "norm1"
  type: "LRN"
  bottom: "conv1"
  top: "norm1"
  lrn_param {
    local_size: 5
    alpha: 0.0001
    beta: 0.75
  }
}
layer {
  name: "pool1"
  type: "Pooling"
  bottom: "norm1"
  top: "pool1"
  pooling_param {
    pool: MAX
    kernel_size: 3
    stride: 2
  }
}
layer {
  name: "conv2"
  type: "Convolution"
  bottom: "pool1"
  top: "conv2"
  param {
    lr_mult: 1
    decay_mult: 1
  }
  param {
    lr_mult: 2
    decay_mult: 0
  }
  convolution_param {
    num_output: 256
    pad: 2
    kernel_size: 5
    group: 2
    weight_filler {
      type: "gaussian"
      std: 0.01
    }
    bias_filler {
      type: "constant"
      value: 0.1
    }
  }
}
layer {
  name: "relu2"
  type: "ReLU"
  bottom: "conv2"
  top: "conv2"
}
layer {
  name: "norm2"
  type: "LRN"
  bottom: "conv2"
  top: "norm2"
  lrn_param {
    local_size: 5
    alpha: 0.0001
    beta: 0.75
  }
}
layer {
  name: "pool2"
  type: "Pooling"
  bottom: "norm2"
  top: "pool2"
  pooling_param {
    pool: AVE
    kernel_size: 3
    stride: 2
  }
}
layer {
  name: "conv3"
  type: "Convolution"
  bottom: "pool2"
  top: "conv3"
  param {
    lr_mult: 1
    decay_mult: 1
  }
  param {
    lr_mult: 2
    decay_mult: 0
  }
  convolution_param {
    num_output: 384
    pad: 1
    kernel_size: 3
    weight_filler {
      type: "gaussian"
      std: 0.01
    }
    bias_filler {
      type: "constant"
      value: 0
    }
  }
}
layer {
  name: "relu3"
  type: "ReLU"
  bottom: "conv3"
  top: "conv3"
}
layer {
  name: "conv4"
  type: "Convolution"
  bottom: "conv3"
  top: "conv4"
  param {
    lr_mult: 1
    decay_mult: 1
  }
  param {
    lr_mult: 2
    decay_mult: 0
  }
  convolution_param {
    num_output: 384
    pad: 1
    kernel_size: 3
    group: 2
    weight_filler {
      type: "gaussian"
      std: 0.01
    }
    bias_filler {
      type: "constant"
      value: 0.1
    }
  }
}
layer {
  name: "relu4"
  type: "ReLU"
  bottom: "conv4"
  top: "conv4"
}
layer {
  name: "conv5"
  type: "Convolution"
  bottom: "conv4"
  top: "conv5"
  param {
    lr_mult: 1
    decay_mult: 1
  }
  param {
    lr_mult: 2
    decay_mult: 0
  }
  convolution_param {
    num_output: 256
    pad: 1
    kernel_size: 3
    group: 2
    weight_filler {
      type: "gaussian"
      std: 0.01
    }
    bias_filler {
      type: "constant"
      value: 0.1
    }
  }
}
layer {
  name: "relu5"
  type: "ReLU"
  bottom: "conv5"
  top: "conv5"
}
layer {
  name: "pool5"
  type: "Pooling"
  bottom: "conv5"
  top: "pool5"
  pooling_param {
    pool: AVE
    kernel_size: 3
    stride: 2
  }
}
layer {
  name: "fc6"
  type: "InnerProduct"
  bottom: "pool5"
  top: "fc6"
  param {
    lr_mult: 1
    decay_mult: 1
  }
  param {
    lr_mult: 2
    decay_mult: 0
  }
  inner_product_param {
    num_output: 4096
    weight_filler {
      type: "gaussian"
      std: 0.005
    }
    bias_filler {
      type: "constant"
      value: 0.1
    }
  }
}
layer {
  name: "relu6"
  type: "ReLU"
  bottom: "fc6"
  top: "fc6"
}
layer {
  name: "drop6"
  type: "Dropout"
  bottom: "fc6"
  top: "fc6"
  dropout_param {
    dropout_ratio: 0.5
  }
}
layer {
  name: "fc7"
  type: "InnerProduct"
  bottom: "fc6"
  top: "fc7"
  param {
    lr_mult: 1
    decay_mult: 1
  }
  param {
    lr_mult: 2
    decay_mult: 0
  }
  inner_product_param {
    num_output: 4096
    weight_filler {
      type: "gaussian"
      std: 0.005
    }
    bias_filler {
      type: "constant"
      value: 0.1
    }
  }
}
layer {
  name: "relu7"
  type: "ReLU"
  bottom: "fc7"
  top: "fc7"
}
layer {
  name: "drop7"
  type: "Dropout"
  bottom: "fc7"
  top: "fc7"
  dropout_param {
    dropout_ratio: 0.5
  }
}
layer {
  name: "fc8"
  type: "InnerProduct"
  bottom: "fc7"
  top: "fc8"
  param {
    lr_mult: 1
    decay_mult: 1
  }
  param {
    lr_mult: 2
    decay_mult: 0
  }
  inner_product_param {
    num_output: 1
    weight_filler {
      type: "gaussian"
      std: 0.01
    }
    bias_filler {
      type: "constant"
      value: 0
    }
  }
}
layer {
  name: "loss"
  type: "SoftmaxWithLoss"
  bottom: "fc8"
  bottom: "label"
  top: "loss"
}
I0110 18:55:10.680652 20857 layer_factory.hpp:77] Creating layer data
I0110 18:55:10.680665 20857 net.cpp:100] Creating Layer data
I0110 18:55:10.680670 20857 net.cpp:408] data -> data
I0110 18:55:10.680691 20857 hdf5_data_layer.cpp:79] Loading list of HDF5 filenames from: train_loc.txt
I0110 18:55:10.680732 20857 hdf5_data_layer.cpp:93] Number of HDF5 files: 38
I0110 18:55:10.885210 20857 hdf5.cpp:32] Datatype class: H5T_FLOAT
I0110 18:55:18.030613 20857 net.cpp:150] Setting up data
I0110 18:55:18.030702 20857 net.cpp:157] Top shape: 16 3 256 256 (3145728)
I0110 18:55:18.030719 20857 net.cpp:165] Memory required for data: 12582912
I0110 18:55:18.030740 20857 layer_factory.hpp:77] Creating layer data
I0110 18:55:18.030771 20857 net.cpp:100] Creating Layer data
I0110 18:55:18.030788 20857 net.cpp:408] data -> label
I0110 18:55:18.030817 20857 hdf5_data_layer.cpp:79] Loading list of HDF5 filenames from: label_list/train_label-1.txt
I0110 18:55:18.030994 20857 hdf5_data_layer.cpp:93] Number of HDF5 files: 1
I0110 18:55:18.031988 20857 hdf5.cpp:35] Datatype class: H5T_INTEGER
I0110 18:55:18.034332 20857 net.cpp:150] Setting up data
I0110 18:55:18.034392 20857 net.cpp:157] Top shape: 16 1 1 1 (16)
I0110 18:55:18.034405 20857 net.cpp:165] Memory required for data: 12582976
I0110 18:55:18.034420 20857 layer_factory.hpp:77] Creating layer conv1
I0110 18:55:18.034466 20857 net.cpp:100] Creating Layer conv1
I0110 18:55:18.034484 20857 net.cpp:434] conv1 <- data
I0110 18:55:18.034515 20857 net.cpp:408] conv1 -> conv1
I0110 18:55:18.688172 20857 net.cpp:150] Setting up conv1
I0110 18:55:18.688212 20857 net.cpp:157] Top shape: 16 96 62 62 (5904384)
I0110 18:55:18.688217 20857 net.cpp:165] Memory required for data: 36200512
I0110 18:55:18.688240 20857 layer_factory.hpp:77] Creating layer relu1
I0110 18:55:18.688251 20857 net.cpp:100] Creating Layer relu1
I0110 18:55:18.688256 20857 net.cpp:434] relu1 <- conv1
I0110 18:55:18.688262 20857 net.cpp:395] relu1 -> conv1 (in-place)
I0110 18:55:18.688443 20857 net.cpp:150] Setting up relu1
I0110 18:55:18.688453 20857 net.cpp:157] Top shape: 16 96 62 62 (5904384)
I0110 18:55:18.688457 20857 net.cpp:165] Memory required for data: 59818048
I0110 18:55:18.688462 20857 layer_factory.hpp:77] Creating layer norm1
I0110 18:55:18.688488 20857 net.cpp:100] Creating Layer norm1
I0110 18:55:18.688493 20857 net.cpp:434] norm1 <- conv1
I0110 18:55:18.688510 20857 net.cpp:408] norm1 -> norm1
I0110 18:55:18.688926 20857 net.cpp:150] Setting up norm1
I0110 18:55:18.688946 20857 net.cpp:157] Top shape: 16 96 62 62 (5904384)
I0110 18:55:18.688951 20857 net.cpp:165] Memory required for data: 83435584
I0110 18:55:18.688956 20857 layer_factory.hpp:77] Creating layer pool1
I0110 18:55:18.688964 20857 net.cpp:100] Creating Layer pool1
I0110 18:55:18.688968 20857 net.cpp:434] pool1 <- norm1
I0110 18:55:18.688977 20857 net.cpp:408] pool1 -> pool1
I0110 18:55:18.689025 20857 net.cpp:150] Setting up pool1
I0110 18:55:18.689035 20857 net.cpp:157] Top shape: 16 96 31 31 (1476096)
I0110 18:55:18.689039 20857 net.cpp:165] Memory required for data: 89339968
I0110 18:55:18.689043 20857 layer_factory.hpp:77] Creating layer conv2
I0110 18:55:18.689055 20857 net.cpp:100] Creating Layer conv2
I0110 18:55:18.689060 20857 net.cpp:434] conv2 <- pool1
I0110 18:55:18.689067 20857 net.cpp:408] conv2 -> conv2
I0110 18:55:18.695426 20857 net.cpp:150] Setting up conv2
I0110 18:55:18.695463 20857 net.cpp:157] Top shape: 16 256 31 31 (3936256)
I0110 18:55:18.695468 20857 net.cpp:165] Memory required for data: 105084992
I0110 18:55:18.695483 20857 layer_factory.hpp:77] Creating layer relu2
I0110 18:55:18.695493 20857 net.cpp:100] Creating Layer relu2
I0110 18:55:18.695498 20857 net.cpp:434] relu2 <- conv2
I0110 18:55:18.695508 20857 net.cpp:395] relu2 -> conv2 (in-place)
I0110 18:55:18.696025 20857 net.cpp:150] Setting up relu2
I0110 18:55:18.696039 20857 net.cpp:157] Top shape: 16 256 31 31 (3936256)
I0110 18:55:18.696044 20857 net.cpp:165] Memory required for data: 120830016
I0110 18:55:18.696048 20857 layer_factory.hpp:77] Creating layer norm2
I0110 18:55:18.696060 20857 net.cpp:100] Creating Layer norm2
I0110 18:55:18.696065 20857 net.cpp:434] norm2 <- conv2
I0110 18:55:18.696072 20857 net.cpp:408] norm2 -> norm2
I0110 18:55:18.696285 20857 net.cpp:150] Setting up norm2
I0110 18:55:18.696296 20857 net.cpp:157] Top shape: 16 256 31 31 (3936256)
I0110 18:55:18.696300 20857 net.cpp:165] Memory required for data: 136575040
I0110 18:55:18.696305 20857 layer_factory.hpp:77] Creating layer pool2
I0110 18:55:18.696312 20857 net.cpp:100] Creating Layer pool2
I0110 18:55:18.696316 20857 net.cpp:434] pool2 <- norm2
I0110 18:55:18.696323 20857 net.cpp:408] pool2 -> pool2
I0110 18:55:18.696719 20857 net.cpp:150] Setting up pool2
I0110 18:55:18.696732 20857 net.cpp:157] Top shape: 16 256 15 15 (921600)
I0110 18:55:18.696734 20857 net.cpp:165] Memory required for data: 140261440
I0110 18:55:18.696738 20857 layer_factory.hpp:77] Creating layer conv3
I0110 18:55:18.696751 20857 net.cpp:100] Creating Layer conv3
I0110 18:55:18.696755 20857 net.cpp:434] conv3 <- pool2
I0110 18:55:18.696763 20857 net.cpp:408] conv3 -> conv3
I0110 18:55:18.707967 20857 net.cpp:150] Setting up conv3
I0110 18:55:18.707998 20857 net.cpp:157] Top shape: 16 384 15 15 (1382400)
I0110 18:55:18.708003 20857 net.cpp:165] Memory required for data: 145791040
I0110 18:55:18.708019 20857 layer_factory.hpp:77] Creating layer relu3
I0110 18:55:18.708030 20857 net.cpp:100] Creating Layer relu3
I0110 18:55:18.708036 20857 net.cpp:434] relu3 <- conv3
I0110 18:55:18.708045 20857 net.cpp:395] relu3 -> conv3 (in-place)
I0110 18:55:18.708222 20857 net.cpp:150] Setting up relu3
I0110 18:55:18.708235 20857 net.cpp:157] Top shape: 16 384 15 15 (1382400)
I0110 18:55:18.708238 20857 net.cpp:165] Memory required for data: 151320640
I0110 18:55:18.708242 20857 layer_factory.hpp:77] Creating layer conv4
I0110 18:55:18.708256 20857 net.cpp:100] Creating Layer conv4
I0110 18:55:18.708261 20857 net.cpp:434] conv4 <- conv3
I0110 18:55:18.708269 20857 net.cpp:408] conv4 -> conv4
I0110 18:55:18.717576 20857 net.cpp:150] Setting up conv4
I0110 18:55:18.717612 20857 net.cpp:157] Top shape: 16 384 15 15 (1382400)
I0110 18:55:18.717617 20857 net.cpp:165] Memory required for data: 156850240
I0110 18:55:18.717627 20857 layer_factory.hpp:77] Creating layer relu4
I0110 18:55:18.717646 20857 net.cpp:100] Creating Layer relu4
I0110 18:55:18.717653 20857 net.cpp:434] relu4 <- conv4
I0110 18:55:18.717660 20857 net.cpp:395] relu4 -> conv4 (in-place)
I0110 18:55:18.717820 20857 net.cpp:150] Setting up relu4
I0110 18:55:18.717833 20857 net.cpp:157] Top shape: 16 384 15 15 (1382400)
I0110 18:55:18.717838 20857 net.cpp:165] Memory required for data: 162379840
I0110 18:55:18.717841 20857 layer_factory.hpp:77] Creating layer conv5
I0110 18:55:18.717852 20857 net.cpp:100] Creating Layer conv5
I0110 18:55:18.717856 20857 net.cpp:434] conv5 <- conv4
I0110 18:55:18.717864 20857 net.cpp:408] conv5 -> conv5
I0110 18:55:18.724644 20857 net.cpp:150] Setting up conv5
I0110 18:55:18.724683 20857 net.cpp:157] Top shape: 16 256 15 15 (921600)
I0110 18:55:18.724687 20857 net.cpp:165] Memory required for data: 166066240
I0110 18:55:18.724699 20857 layer_factory.hpp:77] Creating layer relu5
I0110 18:55:18.724709 20857 net.cpp:100] Creating Layer relu5
I0110 18:55:18.724712 20857 net.cpp:434] relu5 <- conv5
I0110 18:55:18.724720 20857 net.cpp:395] relu5 -> conv5 (in-place)
I0110 18:55:18.724876 20857 net.cpp:150] Setting up relu5
I0110 18:55:18.724885 20857 net.cpp:157] Top shape: 16 256 15 15 (921600)
I0110 18:55:18.724889 20857 net.cpp:165] Memory required for data: 169752640
I0110 18:55:18.724892 20857 layer_factory.hpp:77] Creating layer pool5
I0110 18:55:18.724902 20857 net.cpp:100] Creating Layer pool5
I0110 18:55:18.724906 20857 net.cpp:434] pool5 <- conv5
I0110 18:55:18.724912 20857 net.cpp:408] pool5 -> pool5
I0110 18:55:18.725251 20857 net.cpp:150] Setting up pool5
I0110 18:55:18.725265 20857 net.cpp:157] Top shape: 16 256 7 7 (200704)
I0110 18:55:18.725267 20857 net.cpp:165] Memory required for data: 170555456
I0110 18:55:18.725271 20857 layer_factory.hpp:77] Creating layer fc6
I0110 18:55:18.725278 20857 net.cpp:100] Creating Layer fc6
I0110 18:55:18.725282 20857 net.cpp:434] fc6 <- pool5
I0110 18:55:18.725288 20857 net.cpp:408] fc6 -> fc6
I0110 18:55:19.226795 20857 net.cpp:150] Setting up fc6
I0110 18:55:19.226847 20857 net.cpp:157] Top shape: 16 4096 (65536)
I0110 18:55:19.226852 20857 net.cpp:165] Memory required for data: 170817600
I0110 18:55:19.226863 20857 layer_factory.hpp:77] Creating layer relu6
I0110 18:55:19.226876 20857 net.cpp:100] Creating Layer relu6
I0110 18:55:19.226881 20857 net.cpp:434] relu6 <- fc6
I0110 18:55:19.226887 20857 net.cpp:395] relu6 -> fc6 (in-place)
I0110 18:55:19.227355 20857 net.cpp:150] Setting up relu6
I0110 18:55:19.227367 20857 net.cpp:157] Top shape: 16 4096 (65536)
I0110 18:55:19.227371 20857 net.cpp:165] Memory required for data: 171079744
I0110 18:55:19.227375 20857 layer_factory.hpp:77] Creating layer drop6
I0110 18:55:19.227381 20857 net.cpp:100] Creating Layer drop6
I0110 18:55:19.227385 20857 net.cpp:434] drop6 <- fc6
I0110 18:55:19.227390 20857 net.cpp:395] drop6 -> fc6 (in-place)
I0110 18:55:19.227418 20857 net.cpp:150] Setting up drop6
I0110 18:55:19.227424 20857 net.cpp:157] Top shape: 16 4096 (65536)
I0110 18:55:19.227427 20857 net.cpp:165] Memory required for data: 171341888
I0110 18:55:19.227430 20857 layer_factory.hpp:77] Creating layer fc7
I0110 18:55:19.227438 20857 net.cpp:100] Creating Layer fc7
I0110 18:55:19.227442 20857 net.cpp:434] fc7 <- fc6
I0110 18:55:19.227447 20857 net.cpp:408] fc7 -> fc7
I0110 18:55:19.393605 20857 net.cpp:150] Setting up fc7
I0110 18:55:19.393654 20857 net.cpp:157] Top shape: 16 4096 (65536)
I0110 18:55:19.393661 20857 net.cpp:165] Memory required for data: 171604032
I0110 18:55:19.393672 20857 layer_factory.hpp:77] Creating layer relu7
I0110 18:55:19.393693 20857 net.cpp:100] Creating Layer relu7
I0110 18:55:19.393698 20857 net.cpp:434] relu7 <- fc7
I0110 18:55:19.393705 20857 net.cpp:395] relu7 -> fc7 (in-place)
I0110 18:55:19.393934 20857 net.cpp:150] Setting up relu7
I0110 18:55:19.393945 20857 net.cpp:157] Top shape: 16 4096 (65536)
I0110 18:55:19.393949 20857 net.cpp:165] Memory required for data: 171866176
I0110 18:55:19.393954 20857 layer_factory.hpp:77] Creating layer drop7
I0110 18:55:19.393975 20857 net.cpp:100] Creating Layer drop7
I0110 18:55:19.393980 20857 net.cpp:434] drop7 <- fc7
I0110 18:55:19.393985 20857 net.cpp:395] drop7 -> fc7 (in-place)
I0110 18:55:19.394016 20857 net.cpp:150] Setting up drop7
I0110 18:55:19.394023 20857 net.cpp:157] Top shape: 16 4096 (65536)
I0110 18:55:19.394029 20857 net.cpp:165] Memory required for data: 172128320
I0110 18:55:19.394032 20857 layer_factory.hpp:77] Creating layer fc8
I0110 18:55:19.394042 20857 net.cpp:100] Creating Layer fc8
I0110 18:55:19.394044 20857 net.cpp:434] fc8 <- fc7
I0110 18:55:19.394050 20857 net.cpp:408] fc8 -> fc8
I0110 18:55:19.394184 20857 net.cpp:150] Setting up fc8
I0110 18:55:19.394191 20857 net.cpp:157] Top shape: 16 1 (16)
I0110 18:55:19.394193 20857 net.cpp:165] Memory required for data: 172128384
I0110 18:55:19.394199 20857 layer_factory.hpp:77] Creating layer loss
I0110 18:55:19.394206 20857 net.cpp:100] Creating Layer loss
I0110 18:55:19.394212 20857 net.cpp:434] loss <- fc8
I0110 18:55:19.394215 20857 net.cpp:434] loss <- label
I0110 18:55:19.394222 20857 net.cpp:408] loss -> loss
I0110 18:55:19.394233 20857 layer_factory.hpp:77] Creating layer loss
…
I0110 18:55:19.395166 20857 net.cpp:322] The NetState phase (1) differed from the phase (0) specified by a rule in layer data
I0110 18:55:19.395309 20857 net.cpp:58] Initializing net from parameters: 
name: "AlexNet"
state {
  phase: TEST
}
layer {
  name: "data"
  type: "HDF5Data"
  top: "data"
  include {
    phase: TEST
  }
  hdf5_data_param {
    source: "test_loc.txt"
    batch_size: 8
  }
}
layer {
  name: "data"
  type: "HDF5Data"
  top: "label"
  include {
    phase: TEST
  }
  hdf5_data_param {
    source: "label_list/test_label-1.txt"
    batch_size: 8
  }
}
layer {
  name: "conv1"
  type: "Convolution"
  bottom: "data"
  top: "conv1"
  param {
    lr_mult: 1
    decay_mult: 1
  }
  param {
    lr_mult: 2
    decay_mult: 0
  }
  convolution_param {
    num_output: 96
    kernel_size: 11
    stride: 4
    weight_filler {
      type: "gaussian"
      std: 0.01
    }
    bias_filler {
      type: "constant"
      value: 0
    }
  }
}
layer {
  name: "relu1"
  type: "ReLU"
  bottom: "conv1"
  top: "conv1"
}
layer {
  name: "norm1"
  type: "LRN"
  bottom: "conv1"
  top: "norm1"
  lrn_param {
    local_size: 5
    alpha: 0.0001
    beta: 0.75
  }
}
layer {
  name: "pool1"
  type: "Pooling"
  bottom: "norm1"
  top: "pool1"
  pooling_param {
    pool: MAX
    kernel_size: 3
    stride: 2
  }
}
layer {
  name: "conv2"
  type: "Convolution"
  bottom: "pool1"
  top: "conv2"
  param {
    lr_mult: 1
    decay_mult: 1
  }
  param {
    lr_mult: 2
    decay_mult: 0
  }
  convolution_param {
    num_output: 256
    pad: 2
    kernel_size: 5
    group: 2
    weight_filler {
      type: "gaussian"
      std: 0.01
    }
    bias_filler {
      type: "constant"
      value: 0.1
    }
  }
}
layer {
  name: "relu2"
  type: "ReLU"
  bottom: "conv2"
  top: "conv2"
}
layer {
  name: "norm2"
  type: "LRN"
  bottom: "conv2"
  top: "norm2"
  lrn_param {
    local_size: 5
    alpha: 0.0001
    beta: 0.75
  }
}
layer {
  name: "pool2"
  type: "Pooling"
  bottom: "norm2"
  top: "pool2"
  pooling_param {
    pool: AVE
    kernel_size: 3
    stride: 2
  }
}
layer {
  name: "conv3"
  type: "Convolution"
  bottom: "pool2"
  top: "conv3"
  param {
    lr_mult: 1
    decay_mult: 1
  }
  param {
    lr_mult: 2
    decay_mult: 0
  }
  convolution_param {
    num_output: 384
    pad: 1
    kernel_size: 3
    weight_filler {
      type: "gaussian"
      std: 0.01
    }
    bias_filler {
      type: "constant"
      value: 0
    }
  }
}
layer {
  name: "relu3"
  type: "ReLU"
  bottom: "conv3"
  top: "conv3"
}
layer {
  name: "conv4"
  type: "Convolution"
  bottom: "conv3"
  top: "conv4"
  param {
    lr_mult: 1
    decay_mult: 1
  }
  param {
    lr_mult: 2
    decay_mult: 0
  }
  convolution_param {
    num_output: 384
    pad: 1
    kernel_size: 3
    group: 2
    weight_filler {
      type: "gaussian"
      std: 0.01
    }
    bias_filler {
      type: "constant"
      value: 0.1
    }
  }
}
layer {
  name: "relu4"
  type: "ReLU"
  bottom: "conv4"
  top: "conv4"
}
layer {
  name: "conv5"
  type: "Convolution"
  bottom: "conv4"
  top: "conv5"
  param {
    lr_mult: 1
    decay_mult: 1
  }
  param {
    lr_mult: 2
    decay_mult: 0
  }
  convolution_param {
    num_output: 256
    pad: 1
    kernel_size: 3
    group: 2
    weight_filler {
      type: "gaussian"
      std: 0.01
    }
    bias_filler {
      type: "constant"
      value: 0.1
    }
  }
}
layer {
  name: "relu5"
  type: "ReLU"
  bottom: "conv5"
  top: "conv5"
}
layer {
  name: "pool5"
  type: "Pooling"
  bottom: "conv5"
  top: "pool5"
  pooling_param {
    pool: AVE
    kernel_size: 3
    stride: 2
  }
}
layer {
  name: "fc6"
  type: "InnerProduct"
  bottom: "pool5"
  top: "fc6"
  param {
    lr_mult: 1
    decay_mult: 1
  }
  param {
    lr_mult: 2
    decay_mult: 0
  }
  inner_product_param {
    num_output: 4096
    weight_filler {
      type: "gaussian"
      std: 0.005
    }
    bias_filler {
      type: "constant"
      value: 0.1
    }
  }
}
layer {
  name: "relu6"
  type: "ReLU"
  bottom: "fc6"
  top: "fc6"
}
layer {
  name: "drop6"
  type: "Dropout"
  bottom: "fc6"
  top: "fc6"
  dropout_param {
    dropout_ratio: 0.5
  }
}
layer {
  name: "fc7"
  type: "InnerProduct"
  bottom: "fc6"
  top: "fc7"
  param {
    lr_mult: 1
    decay_mult: 1
  }
  param {
    lr_mult: 2
    decay_mult: 0
  }
  inner_product_param {
    num_output: 4096
    weight_filler {
      type: "gaussian"
      std: 0.005
    }
    bias_filler {
      type: "constant"
      value: 0.1
    }
  }
}
layer {
  name: "relu7"
  type: "ReLU"
  bottom: "fc7"
  top: "fc7"
}
layer {
  name: "drop7"
  type: "Dropout"
  bottom: "fc7"
  top: "fc7"
  dropout_param {
    dropout_ratio: 0.5
  }
}
layer {
  name: "fc8"
  type: "InnerProduct"
  bottom: "fc7"
  top: "fc8"
  param {
    lr_mult: 1
    decay_mult: 1
  }
  param {
    lr_mult: 2
    decay_mult: 0
  }
  inner_product_param {
    num_output: 1
    weight_filler {
      type: "gaussian"
      std: 0.01
    }
    bias_filler {
      type: "constant"
      value: 0
    }
  }
}
layer {
  name: "accuracy"
  type: "Accuracy"
  bottom: "fc8"
  bottom: "label"
  top: "accuracy"
  include {
    phase: TEST
  }
}
layer {
  name: "loss"
  type: "SoftmaxWithLoss"
  bottom: "fc8"
  bottom: "label"
  top: "loss"
}
I0110 18:55:19.395406 20857 layer_factory.hpp:77] Creating layer data
I0110 18:55:19.395416 20857 net.cpp:100] Creating Layer data
I0110 18:55:19.395419 20857 net.cpp:408] data -> data
I0110 18:55:19.395426 20857 hdf5_data_layer.cpp:79] Loading list of HDF5 filenames from: test_loc.txt
I0110 18:55:19.395447 20857 hdf5_data_layer.cpp:93] Number of HDF5 files: 10
I0110 18:55:19.732077 20857 net.cpp:150] Setting up data
I0110 18:55:19.732118 20857 net.cpp:157] Top shape: 8 3 256 256 (1572864)
I0110 18:55:19.732123 20857 net.cpp:165] Memory required for data: 6291456
I0110 18:55:19.732130 20857 layer_factory.hpp:77] Creating layer data
I0110 18:55:19.732143 20857 net.cpp:100] Creating Layer data
I0110 18:55:19.732149 20857 net.cpp:408] data -> label
I0110 18:55:19.732161 20857 hdf5_data_layer.cpp:79] Loading list of HDF5 filenames from: label_list/test_label-1.txt
I0110 18:55:19.732185 20857 hdf5_data_layer.cpp:93] Number of HDF5 files: 1
I0110 18:55:19.733182 20857 net.cpp:150] Setting up data
I0110 18:55:19.733206 20857 net.cpp:157] Top shape: 8 1 1 1 (8)
I0110 18:55:19.733209 20857 net.cpp:165] Memory required for data: 6291488
I0110 18:55:19.733213 20857 layer_factory.hpp:77] Creating layer label_data_0_split
I0110 18:55:19.733230 20857 net.cpp:100] Creating Layer label_data_0_split
I0110 18:55:19.733235 20857 net.cpp:434] label_data_0_split <- label
I0110 18:55:19.733242 20857 net.cpp:408] label_data_0_split -> label_data_0_split_0
I0110 18:55:19.733250 20857 net.cpp:408] label_data_0_split -> label_data_0_split_1
I0110 18:55:19.733285 20857 net.cpp:150] Setting up label_data_0_split
I0110 18:55:19.733291 20857 net.cpp:157] Top shape: 8 1 1 1 (8)
I0110 18:55:19.733295 20857 net.cpp:157] Top shape: 8 1 1 1 (8)
I0110 18:55:19.733299 20857 net.cpp:165] Memory required for data: 6291552
I0110 18:55:19.733301 20857 layer_factory.hpp:77] Creating layer conv1
I0110 18:55:19.733312 20857 net.cpp:100] Creating Layer conv1
I0110 18:55:19.733316 20857 net.cpp:434] conv1 <- data
I0110 18:55:19.733321 20857 net.cpp:408] conv1 -> conv1
I0110 18:55:19.734560 20857 net.cpp:150] Setting up conv1
I0110 18:55:19.734573 20857 net.cpp:157] Top shape: 8 96 62 62 (2952192)
I0110 18:55:19.734576 20857 net.cpp:165] Memory required for data: 18100320
I0110 18:55:19.734586 20857 layer_factory.hpp:77] Creating layer relu1
I0110 18:55:19.734593 20857 net.cpp:100] Creating Layer relu1
I0110 18:55:19.734597 20857 net.cpp:434] relu1 <- conv1
I0110 18:55:19.734602 20857 net.cpp:395] relu1 -> conv1 (in-place)
I0110 18:55:19.734917 20857 net.cpp:150] Setting up relu1
I0110 18:55:19.734928 20857 net.cpp:157] Top shape: 8 96 62 62 (2952192)
I0110 18:55:19.734932 20857 net.cpp:165] Memory required for data: 29909088
I0110 18:55:19.734935 20857 layer_factory.hpp:77] Creating layer norm1
I0110 18:55:19.734943 20857 net.cpp:100] Creating Layer norm1
I0110 18:55:19.734947 20857 net.cpp:434] norm1 <- conv1
I0110 18:55:19.734952 20857 net.cpp:408] norm1 -> norm1
I0110 18:55:19.735108 20857 net.cpp:150] Setting up norm1
I0110 18:55:19.735117 20857 net.cpp:157] Top shape: 8 96 62 62 (2952192)
I0110 18:55:19.735121 20857 net.cpp:165] Memory required for data: 41717856
I0110 18:55:19.735124 20857 layer_factory.hpp:77] Creating layer pool1
I0110 18:55:19.735131 20857 net.cpp:100] Creating Layer pool1
I0110 18:55:19.735146 20857 net.cpp:434] pool1 <- norm1
I0110 18:55:19.735152 20857 net.cpp:408] pool1 -> pool1
I0110 18:55:19.735183 20857 net.cpp:150] Setting up pool1
I0110 18:55:19.735189 20857 net.cpp:157] Top shape: 8 96 31 31 (738048)
I0110 18:55:19.735193 20857 net.cpp:165] Memory required for data: 44670048
I0110 18:55:19.735199 20857 layer_factory.hpp:77] Creating layer conv2
I0110 18:55:19.735208 20857 net.cpp:100] Creating Layer conv2
I0110 18:55:19.735211 20857 net.cpp:434] conv2 <- pool1
I0110 18:55:19.735216 20857 net.cpp:408] conv2 -> conv2
I0110 18:55:19.740053 20857 net.cpp:150] Setting up conv2
I0110 18:55:19.740078 20857 net.cpp:157] Top shape: 8 256 31 31 (1968128)
I0110 18:55:19.740082 20857 net.cpp:165] Memory required for data: 52542560
I0110 18:55:19.740092 20857 layer_factory.hpp:77] Creating layer relu2
I0110 18:55:19.740101 20857 net.cpp:100] Creating Layer relu2
I0110 18:55:19.740105 20857 net.cpp:434] relu2 <- conv2
I0110 18:55:19.740111 20857 net.cpp:395] relu2 -> conv2 (in-place)
I0110 18:55:19.740430 20857 net.cpp:150] Setting up relu2
I0110 18:55:19.740442 20857 net.cpp:157] Top shape: 8 256 31 31 (1968128)
I0110 18:55:19.740444 20857 net.cpp:165] Memory required for data: 60415072
I0110 18:55:19.740448 20857 layer_factory.hpp:77] Creating layer norm2
I0110 18:55:19.740455 20857 net.cpp:100] Creating Layer norm2
I0110 18:55:19.740459 20857 net.cpp:434] norm2 <- conv2
I0110 18:55:19.740464 20857 net.cpp:408] norm2 -> norm2
I0110 18:55:19.740624 20857 net.cpp:150] Setting up norm2
I0110 18:55:19.740633 20857 net.cpp:157] Top shape: 8 256 31 31 (1968128)
I0110 18:55:19.740636 20857 net.cpp:165] Memory required for data: 68287584
I0110 18:55:19.740640 20857 layer_factory.hpp:77] Creating layer pool2
I0110 18:55:19.740645 20857 net.cpp:100] Creating Layer pool2
I0110 18:55:19.740649 20857 net.cpp:434] pool2 <- norm2
I0110 18:55:19.740654 20857 net.cpp:408] pool2 -> pool2
I0110 18:55:19.740983 20857 net.cpp:150] Setting up pool2
I0110 18:55:19.740993 20857 net.cpp:157] Top shape: 8 256 15 15 (460800)
I0110 18:55:19.740998 20857 net.cpp:165] Memory required for data: 70130784
I0110 18:55:19.741000 20857 layer_factory.hpp:77] Creating layer conv3
I0110 18:55:19.741008 20857 net.cpp:100] Creating Layer conv3
I0110 18:55:19.741013 20857 net.cpp:434] conv3 <- pool2
I0110 18:55:19.741019 20857 net.cpp:408] conv3 -> conv3
I0110 18:55:19.750859 20857 net.cpp:150] Setting up conv3
I0110 18:55:19.750892 20857 net.cpp:157] Top shape: 8 384 15 15 (691200)
I0110 18:55:19.750896 20857 net.cpp:165] Memory required for data: 72895584
I0110 18:55:19.750907 20857 layer_factory.hpp:77] Creating layer relu3
I0110 18:55:19.750916 20857 net.cpp:100] Creating Layer relu3
I0110 18:55:19.750921 20857 net.cpp:434] relu3 <- conv3
I0110 18:55:19.750927 20857 net.cpp:395] relu3 -> conv3 (in-place)
I0110 18:55:19.751252 20857 net.cpp:150] Setting up relu3
I0110 18:55:19.751265 20857 net.cpp:157] Top shape: 8 384 15 15 (691200)
I0110 18:55:19.751267 20857 net.cpp:165] Memory required for data: 75660384
I0110 18:55:19.751271 20857 layer_factory.hpp:77] Creating layer conv4
I0110 18:55:19.751281 20857 net.cpp:100] Creating Layer conv4
I0110 18:55:19.751284 20857 net.cpp:434] conv4 <- conv3
I0110 18:55:19.751291 20857 net.cpp:408] conv4 -> conv4
I0110 18:55:19.760315 20857 net.cpp:150] Setting up conv4
I0110 18:55:19.760351 20857 net.cpp:157] Top shape: 8 384 15 15 (691200)
I0110 18:55:19.760356 20857 net.cpp:165] Memory required for data: 78425184
I0110 18:55:19.760367 20857 layer_factory.hpp:77] Creating layer relu4
I0110 18:55:19.760376 20857 net.cpp:100] Creating Layer relu4
I0110 18:55:19.760381 20857 net.cpp:434] relu4 <- conv4
I0110 18:55:19.760390 20857 net.cpp:395] relu4 -> conv4 (in-place)
I0110 18:55:19.760557 20857 net.cpp:150] Setting up relu4
I0110 18:55:19.760567 20857 net.cpp:157] Top shape: 8 384 15 15 (691200)
I0110 18:55:19.760571 20857 net.cpp:165] Memory required for data: 81189984
I0110 18:55:19.760576 20857 layer_factory.hpp:77] Creating layer conv5
I0110 18:55:19.760586 20857 net.cpp:100] Creating Layer conv5
I0110 18:55:19.760601 20857 net.cpp:434] conv5 <- conv4
I0110 18:55:19.760608 20857 net.cpp:408] conv5 -> conv5
I0110 18:55:19.767076 20857 net.cpp:150] Setting up conv5
I0110 18:55:19.767105 20857 net.cpp:157] Top shape: 8 256 15 15 (460800)
I0110 18:55:19.767109 20857 net.cpp:165] Memory required for data: 83033184
I0110 18:55:19.767127 20857 layer_factory.hpp:77] Creating layer relu5
I0110 18:55:19.767138 20857 net.cpp:100] Creating Layer relu5
I0110 18:55:19.767143 20857 net.cpp:434] relu5 <- conv5
I0110 18:55:19.767148 20857 net.cpp:395] relu5 -> conv5 (in-place)
I0110 18:55:19.767302 20857 net.cpp:150] Setting up relu5
I0110 18:55:19.767310 20857 net.cpp:157] Top shape: 8 256 15 15 (460800)
I0110 18:55:19.767313 20857 net.cpp:165] Memory required for data: 84876384
I0110 18:55:19.767318 20857 layer_factory.hpp:77] Creating layer pool5
I0110 18:55:19.767324 20857 net.cpp:100] Creating Layer pool5
I0110 18:55:19.767328 20857 net.cpp:434] pool5 <- conv5
I0110 18:55:19.767333 20857 net.cpp:408] pool5 -> pool5
I0110 18:55:19.767688 20857 net.cpp:150] Setting up pool5
I0110 18:55:19.767699 20857 net.cpp:157] Top shape: 8 256 7 7 (100352)
I0110 18:55:19.767702 20857 net.cpp:165] Memory required for data: 85277792
I0110 18:55:19.767706 20857 layer_factory.hpp:77] Creating layer fc6
I0110 18:55:19.767714 20857 net.cpp:100] Creating Layer fc6
I0110 18:55:19.767719 20857 net.cpp:434] fc6 <- pool5
I0110 18:55:19.767724 20857 net.cpp:408] fc6 -> fc6
I0110 18:55:20.258385 20857 net.cpp:150] Setting up fc6
I0110 18:55:20.258437 20857 net.cpp:157] Top shape: 8 4096 (32768)
I0110 18:55:20.258442 20857 net.cpp:165] Memory required for data: 85408864
I0110 18:55:20.258452 20857 layer_factory.hpp:77] Creating layer relu6
I0110 18:55:20.258462 20857 net.cpp:100] Creating Layer relu6
I0110 18:55:20.258467 20857 net.cpp:434] relu6 <- fc6
I0110 18:55:20.258476 20857 net.cpp:395] relu6 -> fc6 (in-place)
I0110 18:55:20.258690 20857 net.cpp:150] Setting up relu6
I0110 18:55:20.258699 20857 net.cpp:157] Top shape: 8 4096 (32768)
I0110 18:55:20.258702 20857 net.cpp:165] Memory required for data: 85539936
I0110 18:55:20.258707 20857 layer_factory.hpp:77] Creating layer drop6
I0110 18:55:20.258713 20857 net.cpp:100] Creating Layer drop6
I0110 18:55:20.258718 20857 net.cpp:434] drop6 <- fc6
I0110 18:55:20.258721 20857 net.cpp:395] drop6 -> fc6 (in-place)
I0110 18:55:20.258749 20857 net.cpp:150] Setting up drop6
I0110 18:55:20.258754 20857 net.cpp:157] Top shape: 8 4096 (32768)
I0110 18:55:20.258756 20857 net.cpp:165] Memory required for data: 85671008
I0110 18:55:20.258759 20857 layer_factory.hpp:77] Creating layer fc7
I0110 18:55:20.258766 20857 net.cpp:100] Creating Layer fc7
I0110 18:55:20.258770 20857 net.cpp:434] fc7 <- fc6
I0110 18:55:20.258776 20857 net.cpp:408] fc7 -> fc7
I0110 18:55:20.418974 20857 net.cpp:150] Setting up fc7
I0110 18:55:20.419023 20857 net.cpp:157] Top shape: 8 4096 (32768)
I0110 18:55:20.419026 20857 net.cpp:165] Memory required for data: 85802080
I0110 18:55:20.419036 20857 layer_factory.hpp:77] Creating layer relu7
I0110 18:55:20.419055 20857 net.cpp:100] Creating Layer relu7
I0110 18:55:20.419060 20857 net.cpp:434] relu7 <- fc7
I0110 18:55:20.419066 20857 net.cpp:395] relu7 -> fc7 (in-place)
I0110 18:55:20.419515 20857 net.cpp:150] Setting up relu7
I0110 18:55:20.419526 20857 net.cpp:157] Top shape: 8 4096 (32768)
I0110 18:55:20.419529 20857 net.cpp:165] Memory required for data: 85933152
I0110 18:55:20.419533 20857 layer_factory.hpp:77] Creating layer drop7
I0110 18:55:20.419539 20857 net.cpp:100] Creating Layer drop7
I0110 18:55:20.419543 20857 net.cpp:434] drop7 <- fc7
I0110 18:55:20.419550 20857 net.cpp:395] drop7 -> fc7 (in-place)
I0110 18:55:20.419579 20857 net.cpp:150] Setting up drop7
I0110 18:55:20.419585 20857 net.cpp:157] Top shape: 8 4096 (32768)
I0110 18:55:20.419589 20857 net.cpp:165] Memory required for data: 86064224
I0110 18:55:20.419591 20857 layer_factory.hpp:77] Creating layer fc8
I0110 18:55:20.419598 20857 net.cpp:100] Creating Layer fc8
I0110 18:55:20.419601 20857 net.cpp:434] fc8 <- fc7
I0110 18:55:20.419620 20857 net.cpp:408] fc8 -> fc8
I0110 18:55:20.419781 20857 net.cpp:150] Setting up fc8
I0110 18:55:20.419790 20857 net.cpp:157] Top shape: 8 1 (8)
I0110 18:55:20.419792 20857 net.cpp:165] Memory required for data: 86064256
I0110 18:55:20.419798 20857 layer_factory.hpp:77] Creating layer fc8_fc8_0_split
I0110 18:55:20.419808 20857 net.cpp:100] Creating Layer fc8_fc8_0_split
I0110 18:55:20.419811 20857 net.cpp:434] fc8_fc8_0_split <- fc8
I0110 18:55:20.419816 20857 net.cpp:408] fc8_fc8_0_split -> fc8_fc8_0_split_0
I0110 18:55:20.419823 20857 net.cpp:408] fc8_fc8_0_split -> fc8_fc8_0_split_1
I0110 18:55:20.419857 20857 net.cpp:150] Setting up fc8_fc8_0_split
I0110 18:55:20.419862 20857 net.cpp:157] Top shape: 8 1 (8)
I0110 18:55:20.419867 20857 net.cpp:157] Top shape: 8 1 (8)
I0110 18:55:20.419868 20857 net.cpp:165] Memory required for data: 86064320
I0110 18:55:20.419872 20857 layer_factory.hpp:77] Creating layer accuracy
I0110 18:55:20.419878 20857 net.cpp:100] Creating Layer accuracy
I0110 18:55:20.419881 20857 net.cpp:434] accuracy <- fc8_fc8_0_split_0
I0110 18:55:20.419886 20857 net.cpp:434] accuracy <- label_data_0_split_0
I0110 18:55:20.419891 20857 net.cpp:408] accuracy -> accuracy
…
