I0110 20:26:38.298262 25914 caffe.cpp:279] Use CPU.
I0110 20:26:38.906020 25914 net.cpp:58] Initializing net from parameters: 
name: "AlexNet"
state {
  phase: TEST
  level: 0
  stage: ""
}
layer {
  name: "data"
  type: "Input"
  top: "data"
  input_param {
    shape {
      dim: 231
      dim: 3
      dim: 256
      dim: 256
    }
  }
}
layer {
  name: "conv1"
  type: "Convolution"
  bottom: "data"
  top: "conv1"
  param {
    lr_mult: 1
    decay_mult: 1
  }
  param {
    lr_mult: 2
    decay_mult: 0
  }
  convolution_param {
    num_output: 96
    kernel_size: 11
    stride: 4
  }
}
layer {
  name: "relu1"
  type: "ReLU"
  bottom: "conv1"
  top: "conv1"
}
layer {
  name: "norm1"
  type: "LRN"
  bottom: "conv1"
  top: "norm1"
  lrn_param {
    local_size: 5
    alpha: 0.0001
    beta: 0.75
  }
}
layer {
  name: "pool1"
  type: "Pooling"
  bottom: "norm1"
  top: "pool1"
  pooling_param {
    pool: MAX
    kernel_size: 3
    stride: 2
  }
}
layer {
  name: "conv2"
  type: "Convolution"
  bottom: "pool1"
  top: "conv2"
  param {
    lr_mult: 1
    decay_mult: 1
  }
  param {
    lr_mult: 2
    decay_mult: 0
  }
  convolution_param {
    num_output: 256
    pad: 2
    kernel_size: 5
    group: 2
  }
}
layer {
  name: "relu2"
  type: "ReLU"
  bottom: "conv2"
  top: "conv2"
}
layer {
  name: "norm2"
  type: "LRN"
  bottom: "conv2"
  top: "norm2"
  lrn_param {
    local_size: 5
    alpha: 0.0001
    beta: 0.75
  }
}
layer {
  name: "pool2"
  type: "Pooling"
  bottom: "norm2"
  top: "pool2"
  pooling_param {
    pool: AVE
    kernel_size: 3
    stride: 2
  }
}
layer {
  name: "conv3"
  type: "Convolution"
  bottom: "pool2"
  top: "conv3"
  param {
    lr_mult: 1
    decay_mult: 1
  }
  param {
    lr_mult: 2
    decay_mult: 0
  }
  convolution_param {
    num_output: 384
    pad: 1
    kernel_size: 3
  }
}
layer {
  name: "relu3"
  type: "ReLU"
  bottom: "conv3"
  top: "conv3"
}
layer {
  name: "conv4"
  type: "Convolution"
  bottom: "conv3"
  top: "conv4"
  param {
    lr_mult: 1
    decay_mult: 1
  }
  param {
    lr_mult: 2
    decay_mult: 0
  }
  convolution_param {
    num_output: 384
    pad: 1
    kernel_size: 3
    group: 2
  }
}
layer {
  name: "relu4"
  type: "ReLU"
  bottom: "conv4"
  top: "conv4"
}
layer {
  name: "conv5"
  type: "Convolution"
  bottom: "conv4"
  top: "conv5"
  param {
    lr_mult: 1
    decay_mult: 1
  }
  param {
    lr_mult: 2
    decay_mult: 0
  }
  convolution_param {
    num_output: 256
    pad: 1
    kernel_size: 3
    group: 2
  }
}
layer {
  name: "relu5"
  type: "ReLU"
  bottom: "conv5"
  top: "conv5"
}
layer {
  name: "pool5"
  type: "Pooling"
  bottom: "conv5"
  top: "pool5"
  pooling_param {
    pool: AVE
    kernel_size: 3
    stride: 2
  }
}
layer {
  name: "fc6"
  type: "InnerProduct"
  bottom: "pool5"
  top: "fc6"
  param {
    lr_mult: 1
    decay_mult: 1
  }
  param {
    lr_mult: 2
    decay_mult: 0
  }
  inner_product_param {
    num_output: 4096
  }
}
layer {
  name: "relu6"
  type: "ReLU"
  bottom: "fc6"
  top: "fc6"
}
layer {
  name: "drop6"
  type: "Dropout"
  bottom: "fc6"
  top: "fc6"
  dropout_param {
    dropout_ratio: 0.5
  }
}
layer {
  name: "fc7"
  type: "InnerProduct"
  bottom: "fc6"
  top: "fc7"
  param {
    lr_mult: 1
    decay_mult: 1
  }
  param {
    lr_mult: 2
    decay_mult: 0
  }
  inner_product_param {
    num_output: 4096
  }
}
layer {
  name: "relu7"
  type: "ReLU"
  bottom: "fc7"
  top: "fc7"
}
layer {
  name: "drop7"
  type: "Dropout"
  bottom: "fc7"
  top: "fc7"
  dropout_param {
    dropout_ratio: 0.5
  }
}
layer {
  name: "fc8"
  type: "InnerProduct"
  bottom: "fc7"
  top: "fc8"
  param {
    lr_mult: 1
    decay_mult: 1
  }
  param {
    lr_mult: 2
    decay_mult: 0
  }
  inner_product_param {
    num_output: 4
  }
}
layer {
  name: "prob"
  type: "Softmax"
  bottom: "fc8"
  top: "prob"
}
I0110 20:26:38.906105 25914 layer_factory.hpp:77] Creating layer data
I0110 20:26:38.906121 25914 net.cpp:100] Creating Layer data
I0110 20:26:38.906127 25914 net.cpp:408] data -> data
I0110 20:26:38.906153 25914 net.cpp:150] Setting up data
I0110 20:26:38.906167 25914 net.cpp:157] Top shape: 231 3 256 256 (45416448)
I0110 20:26:38.906184 25914 net.cpp:165] Memory required for data: 181665792
I0110 20:26:38.906191 25914 layer_factory.hpp:77] Creating layer conv1
I0110 20:26:38.906201 25914 net.cpp:100] Creating Layer conv1
I0110 20:26:38.906206 25914 net.cpp:434] conv1 <- data
I0110 20:26:38.906213 25914 net.cpp:408] conv1 -> conv1
I0110 20:26:39.529304 25914 net.cpp:150] Setting up conv1
I0110 20:26:39.529341 25914 net.cpp:157] Top shape: 231 96 62 62 (85244544)
I0110 20:26:39.529346 25914 net.cpp:165] Memory required for data: 522643968
I0110 20:26:39.529371 25914 layer_factory.hpp:77] Creating layer relu1
I0110 20:26:39.529384 25914 net.cpp:100] Creating Layer relu1
I0110 20:26:39.529389 25914 net.cpp:434] relu1 <- conv1
I0110 20:26:39.529397 25914 net.cpp:395] relu1 -> conv1 (in-place)
I0110 20:26:39.530175 25914 net.cpp:150] Setting up relu1
I0110 20:26:39.530186 25914 net.cpp:157] Top shape: 231 96 62 62 (85244544)
I0110 20:26:39.530189 25914 net.cpp:165] Memory required for data: 863622144
I0110 20:26:39.530194 25914 layer_factory.hpp:77] Creating layer norm1
I0110 20:26:39.530203 25914 net.cpp:100] Creating Layer norm1
I0110 20:26:39.530207 25914 net.cpp:434] norm1 <- conv1
I0110 20:26:39.530212 25914 net.cpp:408] norm1 -> norm1
I0110 20:26:39.531319 25914 net.cpp:150] Setting up norm1
I0110 20:26:39.531332 25914 net.cpp:157] Top shape: 231 96 62 62 (85244544)
I0110 20:26:39.531335 25914 net.cpp:165] Memory required for data: 1204600320
I0110 20:26:39.531339 25914 layer_factory.hpp:77] Creating layer pool1
I0110 20:26:39.531347 25914 net.cpp:100] Creating Layer pool1
I0110 20:26:39.531350 25914 net.cpp:434] pool1 <- norm1
I0110 20:26:39.531354 25914 net.cpp:408] pool1 -> pool1
I0110 20:26:39.531378 25914 net.cpp:150] Setting up pool1
I0110 20:26:39.531383 25914 net.cpp:157] Top shape: 231 96 31 31 (21311136)
I0110 20:26:39.531386 25914 net.cpp:165] Memory required for data: 1289844864
I0110 20:26:39.531389 25914 layer_factory.hpp:77] Creating layer conv2
I0110 20:26:39.531399 25914 net.cpp:100] Creating Layer conv2
I0110 20:26:39.531401 25914 net.cpp:434] conv2 <- pool1
I0110 20:26:39.531406 25914 net.cpp:408] conv2 -> conv2
I0110 20:26:39.538152 25914 net.cpp:150] Setting up conv2
I0110 20:26:39.538168 25914 net.cpp:157] Top shape: 231 256 31 31 (56829696)
I0110 20:26:39.538172 25914 net.cpp:165] Memory required for data: 1517163648
I0110 20:26:39.538182 25914 layer_factory.hpp:77] Creating layer relu2
I0110 20:26:39.538188 25914 net.cpp:100] Creating Layer relu2
I0110 20:26:39.538192 25914 net.cpp:434] relu2 <- conv2
I0110 20:26:39.538197 25914 net.cpp:395] relu2 -> conv2 (in-place)
I0110 20:26:39.539283 25914 net.cpp:150] Setting up relu2
I0110 20:26:39.539294 25914 net.cpp:157] Top shape: 231 256 31 31 (56829696)
I0110 20:26:39.539296 25914 net.cpp:165] Memory required for data: 1744482432
I0110 20:26:39.539299 25914 layer_factory.hpp:77] Creating layer norm2
I0110 20:26:39.539306 25914 net.cpp:100] Creating Layer norm2
I0110 20:26:39.539310 25914 net.cpp:434] norm2 <- conv2
I0110 20:26:39.539315 25914 net.cpp:408] norm2 -> norm2
I0110 20:26:39.540418 25914 net.cpp:150] Setting up norm2
I0110 20:26:39.540427 25914 net.cpp:157] Top shape: 231 256 31 31 (56829696)
I0110 20:26:39.540431 25914 net.cpp:165] Memory required for data: 1971801216
I0110 20:26:39.540433 25914 layer_factory.hpp:77] Creating layer pool2
I0110 20:26:39.540441 25914 net.cpp:100] Creating Layer pool2
I0110 20:26:39.540444 25914 net.cpp:434] pool2 <- norm2
I0110 20:26:39.540449 25914 net.cpp:408] pool2 -> pool2
I0110 20:26:39.541570 25914 net.cpp:150] Setting up pool2
I0110 20:26:39.541581 25914 net.cpp:157] Top shape: 231 256 15 15 (13305600)
I0110 20:26:39.541584 25914 net.cpp:165] Memory required for data: 2025023616
I0110 20:26:39.541589 25914 layer_factory.hpp:77] Creating layer conv3
I0110 20:26:39.541596 25914 net.cpp:100] Creating Layer conv3
I0110 20:26:39.541600 25914 net.cpp:434] conv3 <- pool2
I0110 20:26:39.541606 25914 net.cpp:408] conv3 -> conv3
I0110 20:26:39.545187 25914 net.cpp:150] Setting up conv3
I0110 20:26:39.545218 25914 net.cpp:157] Top shape: 231 384 15 15 (19958400)
I0110 20:26:39.545233 25914 net.cpp:165] Memory required for data: 2104857216
I0110 20:26:39.545244 25914 layer_factory.hpp:77] Creating layer relu3
I0110 20:26:39.545253 25914 net.cpp:100] Creating Layer relu3
I0110 20:26:39.545258 25914 net.cpp:434] relu3 <- conv3
I0110 20:26:39.545264 25914 net.cpp:395] relu3 -> conv3 (in-place)
I0110 20:26:39.546118 25914 net.cpp:150] Setting up relu3
I0110 20:26:39.546128 25914 net.cpp:157] Top shape: 231 384 15 15 (19958400)
I0110 20:26:39.546130 25914 net.cpp:165] Memory required for data: 2184690816
I0110 20:26:39.546134 25914 layer_factory.hpp:77] Creating layer conv4
I0110 20:26:39.546144 25914 net.cpp:100] Creating Layer conv4
I0110 20:26:39.546147 25914 net.cpp:434] conv4 <- conv3
I0110 20:26:39.546155 25914 net.cpp:408] conv4 -> conv4
I0110 20:26:39.587828 25914 net.cpp:150] Setting up conv4
I0110 20:26:39.587862 25914 net.cpp:157] Top shape: 231 384 15 15 (19958400)
I0110 20:26:39.587867 25914 net.cpp:165] Memory required for data: 2264524416
I0110 20:26:39.587878 25914 layer_factory.hpp:77] Creating layer relu4
I0110 20:26:39.587890 25914 net.cpp:100] Creating Layer relu4
I0110 20:26:39.587895 25914 net.cpp:434] relu4 <- conv4
I0110 20:26:39.587903 25914 net.cpp:395] relu4 -> conv4 (in-place)
I0110 20:26:39.588742 25914 net.cpp:150] Setting up relu4
I0110 20:26:39.588753 25914 net.cpp:157] Top shape: 231 384 15 15 (19958400)
I0110 20:26:39.588757 25914 net.cpp:165] Memory required for data: 2344358016
I0110 20:26:39.588760 25914 layer_factory.hpp:77] Creating layer conv5
I0110 20:26:39.588769 25914 net.cpp:100] Creating Layer conv5
I0110 20:26:39.588773 25914 net.cpp:434] conv5 <- conv4
I0110 20:26:39.588780 25914 net.cpp:408] conv5 -> conv5
I0110 20:26:39.595799 25914 net.cpp:150] Setting up conv5
I0110 20:26:39.595818 25914 net.cpp:157] Top shape: 231 256 15 15 (13305600)
I0110 20:26:39.595823 25914 net.cpp:165] Memory required for data: 2397580416
I0110 20:26:39.595835 25914 layer_factory.hpp:77] Creating layer relu5
I0110 20:26:39.595844 25914 net.cpp:100] Creating Layer relu5
I0110 20:26:39.595849 25914 net.cpp:434] relu5 <- conv5
I0110 20:26:39.595854 25914 net.cpp:395] relu5 -> conv5 (in-place)
I0110 20:26:39.596735 25914 net.cpp:150] Setting up relu5
I0110 20:26:39.596745 25914 net.cpp:157] Top shape: 231 256 15 15 (13305600)
I0110 20:26:39.596750 25914 net.cpp:165] Memory required for data: 2450802816
I0110 20:26:39.596752 25914 layer_factory.hpp:77] Creating layer pool5
I0110 20:26:39.596760 25914 net.cpp:100] Creating Layer pool5
I0110 20:26:39.596763 25914 net.cpp:434] pool5 <- conv5
I0110 20:26:39.596768 25914 net.cpp:408] pool5 -> pool5
I0110 20:26:39.597878 25914 net.cpp:150] Setting up pool5
I0110 20:26:39.597890 25914 net.cpp:157] Top shape: 231 256 7 7 (2897664)
I0110 20:26:39.597894 25914 net.cpp:165] Memory required for data: 2462393472
I0110 20:26:39.597898 25914 layer_factory.hpp:77] Creating layer fc6
I0110 20:26:39.597910 25914 net.cpp:100] Creating Layer fc6
I0110 20:26:39.597915 25914 net.cpp:434] fc6 <- pool5
I0110 20:26:39.597920 25914 net.cpp:408] fc6 -> fc6
I0110 20:26:42.593565 25914 net.cpp:150] Setting up fc6
I0110 20:26:42.593606 25914 net.cpp:157] Top shape: 231 4096 (946176)
I0110 20:26:42.593611 25914 net.cpp:165] Memory required for data: 2466178176
I0110 20:26:42.593619 25914 layer_factory.hpp:77] Creating layer relu6
I0110 20:26:42.593631 25914 net.cpp:100] Creating Layer relu6
I0110 20:26:42.593634 25914 net.cpp:434] relu6 <- fc6
I0110 20:26:42.593641 25914 net.cpp:395] relu6 -> fc6 (in-place)
I0110 20:26:42.594113 25914 net.cpp:150] Setting up relu6
I0110 20:26:42.594125 25914 net.cpp:157] Top shape: 231 4096 (946176)
I0110 20:26:42.594128 25914 net.cpp:165] Memory required for data: 2469962880
I0110 20:26:42.594131 25914 layer_factory.hpp:77] Creating layer drop6
I0110 20:26:42.594139 25914 net.cpp:100] Creating Layer drop6
I0110 20:26:42.594143 25914 net.cpp:434] drop6 <- fc6
I0110 20:26:42.594147 25914 net.cpp:395] drop6 -> fc6 (in-place)
I0110 20:26:42.594166 25914 net.cpp:150] Setting up drop6
I0110 20:26:42.594178 25914 net.cpp:157] Top shape: 231 4096 (946176)
I0110 20:26:42.594182 25914 net.cpp:165] Memory required for data: 2473747584
I0110 20:26:42.594185 25914 layer_factory.hpp:77] Creating layer fc7
I0110 20:26:42.594192 25914 net.cpp:100] Creating Layer fc7
I0110 20:26:42.594197 25914 net.cpp:434] fc7 <- fc6
I0110 20:26:42.594202 25914 net.cpp:408] fc7 -> fc7
I0110 20:26:43.380789 25914 net.cpp:150] Setting up fc7
I0110 20:26:43.380828 25914 net.cpp:157] Top shape: 231 4096 (946176)
I0110 20:26:43.380836 25914 net.cpp:165] Memory required for data: 2477532288
I0110 20:26:43.380847 25914 layer_factory.hpp:77] Creating layer relu7
I0110 20:26:43.380859 25914 net.cpp:100] Creating Layer relu7
I0110 20:26:43.380867 25914 net.cpp:434] relu7 <- fc7
I0110 20:26:43.380873 25914 net.cpp:395] relu7 -> fc7 (in-place)
I0110 20:26:43.381150 25914 net.cpp:150] Setting up relu7
I0110 20:26:43.381161 25914 net.cpp:157] Top shape: 231 4096 (946176)
I0110 20:26:43.381165 25914 net.cpp:165] Memory required for data: 2481316992
I0110 20:26:43.381170 25914 layer_factory.hpp:77] Creating layer drop7
I0110 20:26:43.381177 25914 net.cpp:100] Creating Layer drop7
I0110 20:26:43.381181 25914 net.cpp:434] drop7 <- fc7
I0110 20:26:43.381186 25914 net.cpp:395] drop7 -> fc7 (in-place)
I0110 20:26:43.381193 25914 net.cpp:150] Setting up drop7
I0110 20:26:43.381198 25914 net.cpp:157] Top shape: 231 4096 (946176)
I0110 20:26:43.381201 25914 net.cpp:165] Memory required for data: 2485101696
I0110 20:26:43.381204 25914 layer_factory.hpp:77] Creating layer fc8
I0110 20:26:43.381214 25914 net.cpp:100] Creating Layer fc8
I0110 20:26:43.381218 25914 net.cpp:434] fc8 <- fc7
I0110 20:26:43.381223 25914 net.cpp:408] fc8 -> fc8
I0110 20:26:43.381259 25914 net.cpp:150] Setting up fc8
I0110 20:26:43.381264 25914 net.cpp:157] Top shape: 231 4 (924)
I0110 20:26:43.381268 25914 net.cpp:165] Memory required for data: 2485105392
I0110 20:26:43.381273 25914 layer_factory.hpp:77] Creating layer prob
I0110 20:26:43.381285 25914 net.cpp:100] Creating Layer prob
I0110 20:26:43.381289 25914 net.cpp:434] prob <- fc8
I0110 20:26:43.381294 25914 net.cpp:408] prob -> prob
I0110 20:26:43.381960 25914 net.cpp:150] Setting up prob
I0110 20:26:43.381973 25914 net.cpp:157] Top shape: 231 4 (924)
I0110 20:26:43.381975 25914 net.cpp:165] Memory required for data: 2485109088
I0110 20:26:43.381979 25914 net.cpp:228] prob does not need backward computation.
I0110 20:26:43.381988 25914 net.cpp:228] fc8 does not need backward computation.
I0110 20:26:43.381991 25914 net.cpp:228] drop7 does not need backward computation.
I0110 20:26:43.381994 25914 net.cpp:228] relu7 does not need backward computation.
…
